checkpoint.pth (torch_old, 21069 bytes, 6 tensors)

fc1.weight f4 [64, 8]
0	0x3f430b0c	0.7618873
1	0xbf4524e3	-0.7700941
2	0x3fa895e0	1.3170738
3	0x3e4535a1	0.19258739
4	0x3eed32ec	0.46327913
5	0x3e3f9102	0.1870766
6	0xbd8f7b2a	-0.070059136
7	0x3d2847db	0.04108415
8	0xbe3e646a	-0.18592992
9	0x3f54b380	0.83086395
10	0x3ec059d2	0.37568527
11	0x3d8bb19f	0.06820988
12	0xbf8b9b83	-1.0906833
13	0xbe2067d7	-0.15664612
14	0x3ec214d7	0.37906525
15	0x3f1ff94e	0.62489784
16	0x3e5ca8be	0.21548745
17	0xbdce0948	-0.10060364
18	0xbde9b0d3	-0.1141068
19	0x3e876bc0	0.26449394
20	0x3fab79d8	1.3396559
21	0x3cc88f19	0.024482297
22	0xbc94fac0	-0.018185973
23	0x3f126c8d	0.57196885
24	0x3f65d837	0.8978304
25	0xbfcea8c1	-1.614525
26	0x3df1cce8	0.11806661
27	0xbe825f86	-0.25463504
28	0xbeb0f702	-0.34563452
29	0xbee1f310	-0.44130754
30	0xbf1d42f4	-0.6143029
31	0x3cc5778f	0.024104862
32	0xbf7d534b	-0.9895522
33	0xbf949537	-1.1608037
34	0xbd902b2a	-0.07039483
35	0xbf46dfac	-0.77685046
36	0x3e813336	0.25234383
37	0xbde6fb32	-0.112783805
38	0x3e2e7374	0.1703623
39	0x3ebf5a04	0.37373364
40	0xbea03f7d	-0.31298438
41	0xbe5e56bb	-0.21712773
42	0xbece7d3c	-0.4032992
43	0xbcead385	-0.028665313
44	0x3f650bb8	0.89471006
45	0x3f798537	0.97468895
46	0x3e377a49	0.17917742
47	0x3da55c0d	0.08074198
48	0x3d8a2f83	0.067473434
49	0xbde7c1a7	-0.11316233
50	0xbce31552	-0.027720127
51	0xbd85f53c	-0.06540915
52	0xbf4931eb	-0.78591794
53	0xbe8e4e1d	-0.2779397
54	0x3e7e149d	0.24812551
55	0x3f0c7b9e	0.54876125
56	0x3f1115ab	0.5667369
57	0xc09781ae	-4.73458
58	0xbeb7f13b	-0.35926232
59	0x3d4683a8	0.0484654
60	0xbf013158	-0.5046592
61	0xbdc5f0f7	-0.09665101
62	0xbf6109fc	-0.8790586
63	0x3e0887e1	0.13333084
64	0x3d571213	0.05250747
65	0xbe65fc45	-0.22459514
66	0xbe9054db	-0.2818974
67	0x3fc27a1d	1.5193516
68	0x3e8fcef7	0.2808759
69	0xbf26cf0e	-0.6515969
70	0x3ecfe422	0.4060374
71	0x3b774e6c	0.0037735952
72	0xbed378c7	-0.41303083
73	0x3f2537f5	0.6453851
74	0x3f204528	0.62605524
75	0x3d41aa36	0.047281466
76	0x3b45dddc	0.0030192053
77	0x3e53e347	0.20692168
78	0xbe9f9cd0	-0.31174326
79	0x3e21c271	0.1579683
80	0xbd0ad57a	-0.033894993
81	0xbd32a1f9	-0.0436115
82	0x3f51d17c	0.8196027
83	0x3f7a5d20	0.9779835
84	0x3edb8979	0.4287832
85	0xbdad652e	-0.08466564
86	0x3cff7e88	0.031188264
87	0x3f245601	0.6419373
88	0x3e85db68	0.26143956
89	0x3e866073	0.2624546
90	0xbf00d256	-0.5032095
91	0x3d49d377	0.049273934
92	0xbf40db3b	-0.7533452
93	0xbf3ae684	-0.7300799
94	0xbe0e3c5d	-0.13890214
95	0x3dc8546f	0.097817294
96	0x3e337df5	0.17528518
97	0xbe659a03	-0.22422032
98	0xbe20173a	-0.1563386
99	0xbd500c03	-0.050792705
100	0x3d195e50	0.03744346
101	0xbf97a360	-1.1846733
102	0xbe98b7bf	-0.29827687
103	0x3ec092d8	0.37612033
104	0xbf363c98	-0.7118621
105	0xbf3cb850	-0.7371874
106	0xbf2cf7fb	-0.6756589
107	0xbf487da8	-0.78316736
108	0x3f2e4d5d	0.68086797
109	0x3d97f759	0.07420225
110	0xbd2f38e1	-0.042778853
111	0x3e89e8ac	0.26935327
112	0x3e00210c	0.12512606
113	0xbbb6f02b	-0.0055828295
114	0xbea01049	-0.31262425
115	0x3d4063e2	0.046970256
116	0x3d2df2fe	0.042468064
117	0xbf1c23e3	-0.6099226
118	0x3e38a92e	0.18033287
119	0x3f2c8861	0.673956
120	0x3f8dfbe7	1.10925
121	0xbe83c110	-0.25733232
122	0x3ec05daa	0.3757146
123	0xbeeab996	-0.45844716
124	0x3e9722df	0.29518792
125	0x3e8c0ae1	0.2735205
126	0x3e9817b9	0.297056
127	0x3d8d7697	0.06907385
128	0xbe854e11	-0.26036122
129	0xbfbed3e1	-1.490841
130	0xbf31c052	-0.6943408
131	0xbea1220c	-0.31471288
132	0x3eed1719	0.46306685
133	0xbcdf02bb	-0.027222982
134	0xbe05ca8f	-0.13065551
135	0x3f01392d	0.5047787
136	0x3fcc2c05	1.5950934
137	0xbfbce262	-1.4756587
138	0x3e7673bf	0.24067591
139	0xbf82dad2	-1.0223029
140	0xbe8aba90	-0.2709546
141	0xbda6327f	-0.081151
142	0x3e28f7e4	0.16500813
143	0x3d6de136	0.058076106
144	0xbd8e0297	-0.06934088
145	0xbed7b430	-0.4212966
146	0x3cf782e3	0.030213779
147	0xbf366f23	-0.7126333
148	0xbf309918	-0.689836
149	0xbf1c95a6	-0.61165845
150	0xbe6c97a9	-0.23104729
151	0x3e272114	0.16321212
152	0x3ec34f13	0.38146266
153	0xbec662c0	-0.38747215
154	0xbf71e9c2	-0.9449731
155	0xbf90aa53	-1.1301979
156	0xbf5fc004	-0.8740237
157	0xbd602472	-0.054722257
158	0x3e3bd756	0.18343863
159	0x3f0a9746	0.54137075
160	0xbdeca241	-0.11554385
161	0x3ee576a4	0.44817078
162	0x3e52d726	0.20589885
163	0x3d8d3f50	0.068968415
164	0x3ec16c0f	0.37777755
165	0x3e6a4a30	0.22879863
166	0x3e7ec602	0.24880221
167	0xbc1f5429	-0.009724655
168	0x3e9d1c1c	0.30685508
169	0x3f4bde2b	0.79635876
170	0xbe0483e4	-0.12940937
171	0x3e586a4e	0.21134302
172	0x3d06a11f	0.0328685
173	0xbe313d82	-0.1730862
174	0x3cc77dbc	0.024351947
175	0xbe669fa4	-0.22521836
176	0xbf222a8d	-0.6334618
177	0xc000a778	-2.0102215
178	0xbf7461fe	-0.95462024
179	0xbf884f11	-1.0649129
180	0xbd88ec5d	-0.06685708
181	0xbf2b3d58	-0.6689048
182	0x3e3cdda6	0.18443927
183	0xbebf4ddc	-0.3736409
184	0xbeab88b9	-0.3350275
185	0xbeba98fc	-0.36444843
186	0xbed3e2da	-0.41384012
187	0xbf93db2f	-1.1551265
188	0x3bd4e119	0.0064965603
189	0xbe9f3ee7	-0.31102678
190	0xbec27906	-0.3798296
191	0x3dfe47bd	0.12416027
192	0x3f2d9994	0.67812467
193	0x3f22a466	0.635321
194	0xbf694522	-0.91121113
195	0xbdc4ff4b	-0.09619006
196	0xbe887c2d	-0.2665724
197	0xbecbe53f	-0.39823338
198	0xbed453a9	-0.41470078
199	0xbef94881	-0.4868813
200	0xbf96d3c7	-1.1783379
201	0xbf804880	-1.0022125
202	0xbf2e5e78	-0.681129
203	0xbe89a8f5	-0.26886716
204	0x3f3a3f0c	0.7275245
205	0x3e94af5f	0.29040048
206	0x3e77263a	0.24135676
207	0x3e6da39f	0.23206948
208	0xbcc71f57	-0.024306936
209	0x3dd4c399	0.1038887
210	0x3ecd1cfc	0.40061176
211	0x3eba114b	0.36341318
212	0xbfa7e916	-1.3118007
213	0xbc32f9fc	-0.010923859
214	0xbe9afdd0	-0.3027177
215	0x3eff3e9b	0.49852452
216	0x3e71dc91	0.23619296
217	0xbf42e6da	-0.761335
218	0xbed7f0f9	-0.42176035
219	0xbf2f06b2	-0.6836959
220	0x3e7801c4	0.24219424
221	0x3a929b50	0.0011185203
222	0xbe045881	-0.12924387
223	0x3ee369ce	0.4441666
224	0xba8f1562	-0.0010916407
225	0x3f1dd27b	0.6164929
226	0xbe883b06	-0.2660753
227	0xbec24cbb	-0.37949166
228	0x3f24eaaf	0.644206
229	0x3f2e0948	0.6798291
230	0xbec31e70	-0.3810916
231	0xb9e984c9	-0.00044540156
232	0xbeecee93	-0.46275768
233	0xbf34cb56	-0.70622766
234	0xbf277950	-0.65419483
235	0xbf5e7f13	-0.8691265
236	0x3f38215f	0.7192592
237	0x3f1bfd58	0.60933447
238	0xbca5979c	-0.020213895
239	0x3e6ea656	0.2330564
240	0x3dbf6bfc	0.09346768
241	0x3d3e91a3	0.04652561
242	0x3ea61971	0.32441285
243	0xbeac3775	-0.3363606
244	0xbf4f95d9	-0.81088024
245	0x3ee8136c	0.45327318
246	0xbe25c8ae	-0.16189834
247	0xbefbab05	-0.49153915
248	0x3d900c3e	0.07033585
249	0xbf37fea3	-0.7187292
250	0xbbdd9694	-0.006762335
251	0xbf9323fc	-1.1495357
252	0x3bc65e20	0.006053701
253	0xbd20e0e8	-0.039276987
254	0x3e52e1a5	0.20593889
255	0xbf07cc0f	-0.53045744

fc1.bias f4 [64]
0	0x3ec427b1	0.38311532
1	0x3ee9ae7d	0.45640936
2	0x3dde1e8d	0.10845671
3	0xbe6f4708	-0.2336694
4	0x3e724e47	0.23662673
5	0x3bffd858	0.0078077726
6	0x3caae15d	0.020859415
7	0x3ec59000	0.38586426
8	0xbed0993f	-0.40741917
9	0x3f0dc527	0.55378956
10	0x3b7dc9a4	0.0038724924
11	0x3e48097a	0.19534865
12	0x3eb42f05	0.35192123
13	0xbe829980	-0.25507736
14	0xbde304e7	-0.110849194
15	0xbd8f4fef	-0.06997668
16	0xbe59a482	-0.21254161
17	0xbe711e29	-0.23546661
18	0xbe8b1f71	-0.27172425
19	0x3db3695d	0.08760331
20	0x3f3b49cd	0.73159486
21	0x3f3d5f57	0.739736
22	0x3e2b0ce5	0.16704138
23	0x3e6ece3d	0.23320861
24	0xbe91f660	-0.28508282
25	0xbed7ea34	-0.4217087
26	0xbe4438fb	-0.19162361
27	0x3ecc3178	0.39881492
28	0x3ee435ac	0.44572198
29	0xbe810e93	-0.25206432
30	0xbdd1f9bf	-0.102527134
31	0x3e921303	0.2853013
32	0x3f198207	0.5996403
33	0xbe81b233	-0.25331268
34	0xbe1a9f6e	-0.1509988
35	0xbc8df52d	-0.017328823
36	0x3ec8d48b	0.39224657
37	0xbea91346	-0.33022517
38	0x3e2f3294	0.17109138
39	0x3db71f14	0.089414746
40	0x3edb3205	0.428116
41	0x3dffc95a	0.12489577
42	0xbcb24426	-0.021761011
43	0x3ebef94a	0.37299567
44	0xbe5cc728	-0.21560347
45	0xbe418586	-0.18898591
46	0xbe2d0990	-0.16898179
47	0x3ee11884	0.43964016
48	0xba76ff08	-0.0009422158
49	0x3da2e7ff	0.07954406
50	0xbed27992	-0.41108376
51	0xbe39640a	-0.18104568
52	0x3e66a3c4	0.22523409
53	0xbd5b4f13	-0.053542208
54	0x3ca0284a	0.019550461
55	0x3dccf548	0.10007721
56	0x3e9f22c4	0.31081212
57	0xbe63c34e	-0.22242472
58	0x3e2d45dc	0.1692118
59	0xbdadb305	-0.08481411
60	0x3e4aab7b	0.19791977
61	0x3d88bf22	0.06677081
62	0xbe8b43a2	-0.27200037
63	0x3f054522	0.52058613

fc2.weight f4 [64, 64]
0	0x3b3ac500	0.0028498769
1	0x3b8651ea	0.0040991204
2	0xbdfd30f1	-0.123628505
3	0x3d888a76	0.06667034
4	0xbca75a38	-0.020428762
5	0x3dc418d8	0.09575051
6	0xbd834096	-0.06408803
7	0xbdce6f40	-0.10079813
8	0xbd8ed5fe	-0.069744095
9	0x3d064af7	0.032786336
10	0xbdd81c4c	-0.10552272
11	0xbe0ae830	-0.13565135
12	0x3dbb0922	0.09132601
13	0x3d39262f	0.04520243
14	0x3cbc8500	0.023012638
15	0x3d7be44d	0.06149702
16	0xbe14d0a3	-0.14532714
17	0x3cb856c8	0.022502318
18	0x3b5a7140	0.0033331662
19	0xbd23b068	-0.039963156
20	0x3d36ba69	0.04461137
21	0xbe0623ad	-0.13099547
22	0x3de50498	0.11182517
23	0xbd9cf062	-0.07663037
24	0x3db92d30	0.09041822
25	0xbd3da573	-0.046300363
26	0xbddcf719	-0.10789318
27	0xbdc31392	-0.09525217
28	0x3cb10815	0.0216103
29	0x3bc4fa99	0.006011319
30	0x3d66604f	0.05624419
31	0x3d7ab1b4	0.061204627
32	0xbda82050	-0.08209288
33	0xbdcc7dd9	-0.09984941
34	0xbd4cf1bc	-0.050035223
35	0xbdbd53e0	-0.092445135
36	0xbd9938c6	-0.07481532
37	0xbd99a818	-0.075027645
38	0xbe03d203	-0.12873082
39	0xbbeac6e0	-0.007164821
40	0xbdb60f1c	-0.08889601
41	0xbd180f28	-0.03712383
42	0x3c7926df	0.0152070215
43	0xbd95630f	-0.072942846
44	0xbdd82357	-0.105536155
45	0xbd234428	-0.03985992
46	0x3cf5d510	0.030008823
47	0xbc8b589f	-0.017010031
48	0x3d575914	0.052575186
49	0x3d84aada	0.064779
50	0x3ddbb88c	0.10728559
51	0x3da24587	0.079234175
52	0xbd21ba08	-0.039484054
53	0xbc344bad	-0.011004371
54	0x3dcc1eb5	0.099667944
55	0xbdf91ac9	-0.12163312
56	0x3b408be9	0.0029380268
57	0xbdf7b3c6	-0.12094836
58	0x3b76dcc0	0.0037668198
59	0xbc9bc8b0	-0.019016594
60	0x3d50d919	0.05098829
61	0xbe0ca7cf	-0.13735889
62	0x3d58f7f7	0.052970853
63	0xbe08c814	-0.13357574
64	0xbd11cf44	-0.035598055
65	0xbd49bffb	-0.049255352
66	0xbd051c67	-0.03249779
67	0xbd42eee8	-0.04759112
68	0xbd87dfe0	-0.06634498
69	0x3cf28977	0.029606564
70	0xbdfcbf5a	-0.12341185
71	0x3daec0b6	0.085328504
72	0xbd9ebb74	-0.077505976
73	0xbe00ee7e	-0.12590978
74	0xbb933ae0	-0.0044931024
75	0xbb7ac875	-0.0038266454
76	0xbdcb4a3f	-0.09926271
77	0xbda9a9a3	-0.08284309
78	0xbdeafe00	-0.11474228
79	0x3c8cc58d	0.017184043
80	0x3d8b6fea	0.06808455
81	0x3d67df9d	0.05660974
82	0x3decde82	0.115658775
83	0x3d26c77e	0.040717594
84	0xbdb4c975	-0.088274874
85	0x3d565c5f	0.052334186
86	0x3d4df0c0	0.050278425
87	0x3d09ec0c	0.033672377
88	0xbdc2762e	-0.09495197
89	0x3daf7e84	0.08569053
90	0xbd49654e	-0.049168877
91	0xbcdec0f6	-0.02719162
92	0x3d721db7	0.05911037
93	0xbdec99ef	-0.11552798
94	0xbdc9114e	-0.09817754
95	0xbbdb38e0	-0.0066901296
96	0xbe0ab49f	-0.13545464
97	0xbdc87f69	-0.097899266
98	0x3ddc9c20	0.10771966
99	0x3d5711d0	0.05250722
100	0x3dc13961	0.09434772
101	0x3d6ff104	0.05857946
102	0x3d830e36	0.06399195
103	0xbca89d12	-0.02058271
104	0xbd3202bb	-0.043459635
105	0xbd7a1d28	-0.06106296
106	0x3d37c080	0.044861317
107	0x3d7a5cec	0.061123773
108	0xbc36b72d	-0.011152071
109	0x3c424ba0	0.011858851
110	0xbd36ec7c	-0.044659123
111	0xbd9c4006	-0.07629399
112	0x3d49319d	0.04911958
113	0xbdd5087c	-0.10402009
114	0xbd609f68	-0.05483952
115	0xbdac3a1e	-0.084095225
116	0x3d1dd450	0.038532555
117	0xbdb217fb	-0.0869598
118	0xbd1f4a80	-0.038889408
119	0xbdc240df	-0.094850294
120	0x3d032193	0.03201444
121	0xbdacf502	-0.08445169
122	0xbe02e3e6	-0.12782249
123	0xbdfcc868	-0.12342912
124	0xbe055751	-0.1302159
125	0xbd555e33	-0.05209179
126	0xbd99394e	-0.07481633
127	0xbd177965	-0.036981005
128	0xbf0ff90e	-0.562394
129	0xbe5a6181	-0.21326257
130	0xbdd7b181	-0.10531903
131	0x3e7bdb42	0.24595359
132	0x3eaf3433	0.34219512
133	0x3eb8ca6c	0.36091936
134	0x3e77609a	0.24157944
135	0xbd494498	-0.04913768
136	0x3e90b16a	0.28260356
137	0xbf847d8b	-1.0350813
138	0xbf918195	-1.136767
139	0xbe9606e3	-0.2930213
140	0xbe0b441a	-0.13600197
141	0x3f21647b	0.63043946
142	0x3d4c928f	0.049944457
143	0xbd278abd	-0.040903796
144	0x3f466ad0	0.7750673
145	0xbe635746	-0.22201261
146	0x3f0d0eac	0.5510051
147	0x3d9f47e3	0.07777383
148	0xbe946398	-0.28982234
149	0xbf9221d6	-1.1416576
150	0x3ed965a0	0.42460346
151	0x3e4311e1	0.19049789
152	0xbe942764	-0.28936303
153	0x3f30f992	0.69130814
154	0xbcfe0b97	-0.031011386
155	0x3e8cdbd6	0.27511472
156	0xbe246583	-0.16054349
157	0x3ee63400	0.44961548
158	0x3af096bf	0.0018355473
159	0x3e792672	0.24331072
160	0xbe4a5940	-0.19760609
161	0x3e94a9f3	0.2903591
162	0x3efae71a	0.49004441
163	0x3e1941bb	0.1496648
164	0x3f0cb342	0.54961026
165	0x3eb84d93	0.35996684
166	0x3deb32b9	0.11484284
167	0xbf1a23d7	-0.6021094
168	0x3cc21335	0.0236908
169	0xbdafc57c	-0.08582589
170	0xbe30a121	-0.17248966
171	0xbf502aab	-0.81315106
172	0x3e8d0537	0.2754304
173	0x3f548a8a	0.83023894
174	0x3c5c45b0	0.013444349
175	0xbf43787d	-0.76355726
176	0x3dc09862	0.09404065
177	0x3ed5cadf	0.4175634
178	0xbd779fa3	-0.060454976
179	0x3f0f2f7b	0.55931824
180	0xbe4499f1	-0.19199349
181	0xba8eeef1	-0.001090495
182	0xbda073ae	-0.07834564
183	0x3f0bd895	0.5462735
184	0x3e487cf8	0.19578922
185	0x3e72e5e2	0.23720506
186	0x3ebb7a6d	0.3661684
187	0x3f08e781	0.53478247
188	0x3eb73f45	0.35790458
189	0x3f023547	0.50862545
190	0xbe9341fe	-0.28761286
191	0x3e40d7db	0.18832342
192	0xbdf4c6d0	-0.11951983
193	0x3dc28a64	0.09499052
194	0xbdac5b8b	-0.08415898
195	0x3dd01b5e	0.1016147
196	0x3d41c946	0.04731109
197	0x3ddaf594	0.106913716
198	0xbe013f3a	-0.12621775
199	0xbde6a8bc	-0.11262652
200	0xbd217972	-0.03942246
201	0xbd772dcf	-0.06034642
202	0xbcdb2668	-0.026751712
203	0xbda30f91	-0.079619534
204	0x3dbc9665	0.09208373
205	0xbdb80636	-0.0898556
206	0xbc3fd6f5	-0.011708965
207	0xbc2f0789	-0.010682949
208	0xbdf4c7b2	-0.11952151
209	0xbe1116af	-0.1416881
210	0xbcf4d6af	-0.029887525
211	0xbe00c3e7	-0.12574731
212	0xbd3f9f91	-0.046783034
213	0xbd64cfc2	-0.055862196
214	0xbcb2b022	-0.021812502
215	0x3c332d6a	0.0109361205
216	0x3d92b61a	0.07163639
217	0xbd9ae0ce	-0.07562409
218	0x3dc1093f	0.09425592
219	0xbe0a12a2	-0.1348367
220	0xbdcdc112	-0.10046591
221	0xbd57ed1d	-0.052716363
222	0x3d82fcc6	0.06395869
223	0xbd94cd99	-0.07265777
224	0xbdfbcc5f	-0.1229484
225	0xbc638be1	-0.01388833
226	0x3d0322ef	0.032015737
227	0x3dc06ec0	0.09396124
228	0xbd87c531	-0.06629408
229	0x3d6b1834	0.05739613
230	0xbdd7d9b3	-0.1053957
231	0x3d5e35d0	0.05425054
232	0xbdeb8103	-0.114992164
233	0xbd901f45	-0.07037214
234	0x3db53406	0.08847813
235	0x3d3ee5df	0.04660594
236	0xbc37bc20	-0.011214286
237	0xbda58a66	-0.08083038
238	0xbce0d366	-0.027444553
239	0x3bb12f03	0.0054072156
240	0x3dafa04b	0.08575495
241	0xbd4bac37	-0.049724784
242	0xbcce5207	-0.025185598
243	0xbd52cf2c	-0.051467106
244	0xbd7e7bf0	-0.062129915
245	0xbd9a6798	-0.0753929
246	0x3cd08193	0.02545241
247	0xbd649c40	-0.055813074
248	0x3db5b714	0.0887281
249	0xbd68ad2f	-0.056805786
250	0xbe0c2dbb	-0.1368932
251	0x3c8fb2bf	0.017541287
252	0xbdaebfc1	-0.08532668
253	0xbe0967f4	-0.13418561
254	0x3d998194	0.07495418
255	0xbdde1512	-0.108438626

fc2.bias f4 [64]
0	0xbdc9a8f1	-0.09846676
1	0xbb298d53	-0.002587159
2	0xbf269684	-0.6507342
3	0x3d5dbda5	0.054135937
4	0xbd66251a	-0.056187727
5	0xbda95906	-0.08268933
6	0xbd570886	-0.052498363
7	0x3e7ceb3e	0.24699113
8	0x3ceb2a23	0.028706616
9	0xbd128a8e	-0.035776667
10	0xbe18cbe9	-0.14921536
11	0x3cb83d89	0.02249028
12	0xbd11c307	-0.035586383
13	0xbde1fa7c	-0.11034104
14	0xbd852502	-0.06501199
15	0x3e6c7d15	0.2309459
16	0x3d8dc4b8	0.06922287
17	0x3e9c4b51	0.30526212
18	0x3e7c96a7	0.24666844
19	0x3df4c48b	0.1195155
20	0x3e652f8a	0.22381416
21	0xbe076cc0	-0.13225079
22	0x3e327a37	0.17429434
23	0x3e1b94f9	0.15193547
24	0x3eec22e4	0.4612037
25	0x3cd840b4	0.02639804
26	0x3e91afb0	0.2845435
27	0x3a8ac5ec	0.001058755
28	0x3ccc3956	0.024929684
29	0x3db1ec80	0.08687687
30	0x3f20e031	0.6284209
31	0x3c7c9b5e	0.015417902
32	0xbd97636f	-0.07392012
33	0xbd87927c	-0.066197366
34	0xbdafbb9e	-0.08580707
35	0x3dfb2fd8	0.12264985
36	0xbd4b92e2	-0.049700625
37	0xbd4f1579	-0.050557587
38	0x3dcf8293	0.10132327
39	0x3da8204f	0.082092874
40	0x3de16bc8	0.11006886
41	0x3e474fe0	0.19464064
42	0x3f341477	0.70343727
43	0x3dbeb0c4	0.09311059
44	0x3d5b6e43	0.05357195
45	0x3e0113bf	0.12605189
46	0xbdbbfb87	-0.091788344
47	0x3dfe8e34	0.12429467
48	0xbdf972b8	-0.12180084
49	0x3e013992	0.12619618
50	0x3da051d2	0.07828106
51	0x3e83870c	0.2568897
52	0x3d8d4a2f	0.06898915
53	0x3ef48939	0.47760943
54	0xbe0b4d00	-0.13603592
55	0xbcb17262	-0.021660987
56	0x3d79cdd5	0.060987312
57	0x3db11ae1	0.08647705
58	0x3e3d0816	0.18460116
59	0x3cdd973b	0.027049651
60	0x3dad7529	0.08469612
61	0x3ea7a561	0.32743362
62	0x3e3d4e30	0.18486857
63	0x3da4de9c	0.08050272

fc3.weight f4 [4, 64]
0	0x3cfde730	0.030994028
1	0xbdabc908	-0.08387953
2	0xbed17a29	-0.40913513
3	0xbc950a3c	-0.018193357
4	0x3dd60c0a	0.10451515
5	0xbcd550e8	-0.026039556
6	0xbbe64ac1	-0.0070279543
7	0x3ee9d181	0.4566765
8	0xbf003517	-0.5008101
9	0xbefac625	-0.48979297
10	0xbe4fd6f8	-0.20296848
11	0xbd4adf34	-0.04952927
12	0xbec6e4a2	-0.38846308
13	0xbc84f778	-0.016231284
14	0xbece7256	-0.40321606
15	0xbf457b46	-0.77141225
16	0x3fac1572	1.3444045
17	0x4024e25d	2.576316
18	0x3eea24d0	0.4573121
19	0xbf93683e	-1.1516187
20	0x3fd43a03	1.6580204
21	0xbd2d9aeb	-0.04238407
22	0x3f93bf62	1.154278
23	0xbedfeb7f	-0.43734357
24	0x3ea7808a	0.32715255
25	0xbeefed43	-0.46860704
26	0x3fa5b5aa	1.2946064
27	0x3e9808db	0.29694256
28	0xbe807307	-0.2508776
29	0xbf3c38f0	-0.7352438
30	0x3f831284	1.0240026
31	0xbf6a190a	-0.91444457
32	0xbef16670	-0.47148466
33	0xbf094beb	-0.53631467
34	0xbf015b24	-0.50529695
35	0xbecdd607	-0.40202352
36	0xbebe42d2	-0.37160355
37	0x3da02113	0.078188084
38	0x3fd3c12f	1.654333
39	0xbe7e0a56	-0.2480863
40	0x4066b841	3.604996
41	0xbf119244	-0.5686381
42	0x3f9d8496	1.2306087
43	0xbf664571	-0.8994971
44	0xbda44db9	-0.08022637
45	0xbef7b7d1	-0.48382428
46	0xbdd9d729	-0.10636742
47	0xbf6b81dc	-0.91995025
48	0x3d965096	0.07339589
49	0xbf92a0df	-1.1455344
50	0xbf57fe54	-0.8437245
51	0xbef3522e	-0.47523636
52	0x3d81669b	0.063183986
53	0x3fc6966e	1.5514657
54	0xbead6878	-0.33868766
55	0xbedc35e0	-0.43009853
56	0xbe5690ce	-0.20953676
57	0x3fb1e5e1	1.3898278
58	0xbf804415	-1.0020777
59	0xbef579a7	-0.47944376
60	0xbe83a7f1	-0.25714067
61	0x3fbdfdbb	1.4843057
62	0xbf41d65d	-0.7571772
63	0xbe2889d8	-0.16458833
64	0x3c29e440	0.01036936
65	0x3d71d9c8	0.059045583
66	0x3d8274a7	0.06369906
67	0x3e0f75a7	0.14009725
68	0xbbbac8e0	-0.0057002157
69	0x3d2c2b9c	0.042033777
70	0x3cf4db16	0.029889625
71	0x3f9e1cce	1.235254
72	0xbef66409	-0.48123196
73	0x3e56474e	0.20925638
74	0xbef84f3e	-0.48497957
75	0x3cb67c26	0.022275995
76	0xbf0cda47	-0.55020565
77	0x3d75ea20	0.060037732
78	0xbefdb624	-0.49553025
79	0xbf3de41b	-0.74176186
80	0x3fdb2e18	1.7123442
81	0x401a2c12	2.4089398
82	0x3f5bca97	0.85856
83	0xbfe05484	-1.7525792
84	0x3fc483eb	1.5352758
85	0xbd4c9810	-0.049949706
86	0x3f885d7b	1.0653528
87	0xbf042cd8	-0.51630926
88	0x3ef80eff	0.4844894
89	0xbf1e186d	-0.6175602
90	0x3f88324b	1.0640348
91	0x3f78e311	0.97221476
92	0xbf25b38c	-0.6472709
93	0xbec5ff68	-0.38671422
94	0x3f8e4f13	1.1117882
95	0x3d90b081	0.070649154
96	0xbf16be9a	-0.58884585
97	0xbeff1025	-0.49817005
98	0xbee892ff	-0.4542465
99	0xbf15cabf	-0.5851249
100	0xbee2e9c9	-0.4431899
101	0xbda1be1c	-0.078975886
102	0x3fa453f1	1.2838117
103	0xbf3fd2bb	-0.74930924
104	0x406b1738	3.6732922
105	0xbef9eaa1	-0.4881182
106	0x3f873aea	1.0564854
107	0xbee5d84a	-0.44891578
108	0x3d721720	0.059104085
109	0xbecc3890	-0.39886904
110	0x3dd3511b	0.10318204
111	0xbe53ec6c	-0.20695657
112	0x3c622560	0.013802856
113	0xbea7626a	-0.3269227
114	0xbebe26ba	-0.3713892
115	0xbf0fb23f	-0.56131357
116	0x3ef6569f	0.48112962
117	0x3f98ae35	1.1928164
118	0xbee88fcf	-0.45422217
119	0xbf2703ed	-0.65240365
120	0xbf14d542	-0.58137906
121	0x3fd20be2	1.6409876
122	0xbfa57bf2	-1.292845
123	0xbf04fd2e	-0.5194882
124	0xbf1e5a70	-0.61856747
125	0x3fbce123	1.4756206
126	0xbf6d1474	-0.92609334
127	0xbe9e9c86	-0.30978793
128	0x3d897c90	0.067132115
129	0x3d7ed99f	0.06221926
130	0xbf7ad2ce	-0.9797791
131	0x3dce12db	0.1006219
132	0x3dd3707e	0.103241906
133	0xbddaae46	-0.10677771
134	0xbd494b91	-0.04914433
135	0x3fdcc6fe	1.7248228
136	0xbe7f9754	-0.24960071
137	0x3f061326	0.5237297
138	0xbea4e000	-0.32202148
139	0x3ce0b2e2	0.027429048
140	0xbebde458	-0.37088275
141	0x3d57174c	0.052512452
142	0xbed63243	-0.41835222
143	0xbf04f136	-0.5193056
144	0x3fddc4e4	1.7325711
145	0x40031420	2.0481033
146	0xbf810984	-1.0081029
147	0xbf96d962	-1.178509
148	0x3fb66084	1.4248204
149	0xbdf4db7e	-0.11955927
150	0x3fba5e7e	1.4560087
151	0xbf2350d9	-0.6379524
152	0xbe5cba3b	-0.21555416
153	0xbef0c5c3	-0.4702588
154	0x3fba8b8c	1.4573836
155	0x3f39ab21	0.72526747
156	0xbf12638a	-0.57183135
157	0xbf117d37	-0.5683169
158	0x3f879c54	1.0594583
159	0xbefc5a7c	-0.49287784
160	0xbed81c09	-0.4220889
161	0xbe8c9e02	-0.274643
162	0xbedd27c4	-0.431944
163	0xbef7b1c7	-0.4837782
164	0xbf18da68	-0.5970826
165	0x3da890b7	0.08230727
166	0x3fd1ea7b	1.6399683
167	0xbf1eb5bc	-0.61996055
168	0x3f5bb442	0.85821927
169	0xbe91c36c	-0.28469408
170	0x3f9e1ddc	1.2352862
171	0xbf3f6990	-0.7477045
172	0x3d03ea0a	0.03220562
173	0xbf0a3f32	-0.5400268
174	0xbdae3672	-0.08506478
175	0xbf140a57	-0.5782828
176	0xbcc025c0	-0.0234555
177	0xbf5a5d15	-0.8529828
178	0xbf1610f0	-0.58619595
179	0xbe7c01ec	-0.24610108
180	0x3f51e6f4	0.8199303
181	0x3f9e2b06	1.235688
182	0xbee42aad	-0.4456381
183	0xbe932f2a	-0.2874692
184	0xbea807b7	-0.32818386
185	0x3fd31521	1.6490823
186	0xbfbf20b7	-1.4931859
187	0xbe91fbfa	-0.28512555
188	0xbf0e6545	-0.55623275
189	0x3fa3aa2b	1.2786306
190	0xbf292cbe	-0.66083896
191	0xbf658e1a	-0.89669955
192	0x3df5e5b4	0.12006703
193	0xbc0f53c0	-0.008747995
194	0xbefbc0be	-0.49170488
195	0xbc8e3083	-0.017357117
196	0x3d99eebc	0.07516238
197	0x3dc63b9c	0.09679338
198	0x3ca2f5cd	0.019892598
199	0x3edfd37b	0.43716034
200	0xbebc4a0a	-0.36775237
201	0x3caa8cab	0.020819029
202	0xbe875118	-0.26429057
203	0x3d7bb16d	0.061448503
204	0xbeaf7c6f	-0.34274623
205	0x3c6efa60	0.014586061
206	0xbee9fee3	-0.45702276
207	0xbf3123ad	-0.6919506
208	0x3f8ddf7b	1.1083826
209	0x402b3608	2.6751728
210	0x3e243ada	0.16038075
211	0xbfa2496f	-1.267866
212	0x3fe1d237	1.7642277
213	0x3d3d4010	0.046203673
214	0x3fd5a7dd	1.6691853
215	0xbed2bf87	-0.4116175
216	0xbdc87035	-0.09787027
217	0xbeceeb91	-0.40414098
218	0x3f6235f9	0.88363606
219	0xbf5497f9	-0.8304439
220	0xbf020cfc	-0.5080106
221	0xbf06e829	-0.52698
222	0x3fa90524	1.3204694
223	0xbf868c11	-1.0511495
224	0xbed208a0	-0.41022205
225	0xbeb34b75	-0.35018507
226	0xbef365c2	-0.47538573
227	0xbee69921	-0.45038703
228	0xbf11b7c2	-0.5692102
229	0xbd96fd08	-0.07372481
230	0x3fe101c5	1.7578665
231	0xbcb4e5b2	-0.022082184
232	0x406ee2e0	3.7325974
233	0xbe1458aa	-0.14486948
234	0x3f8a3b83	1.0799412
235	0xbf887293	-1.0659965
236	0xbd86d306	-0.06583218
237	0xbf0650c9	-0.5246702
238	0x3db005b0	0.08594835
239	0xbf2a3914	-0.66493344
240	0x3c63a7b0	0.01389496
241	0xbfa6efc7	-1.3041924
242	0xbf2fb2ff	-0.686325
243	0xbe6acb0a	-0.22929016
244	0x3ec72394	0.3889433
245	0x3fd85f57	1.6904095
246	0xbed0af33	-0.40758666
247	0xbe87b29f	-0.26503465
248	0xbed14b2e	-0.4087767
249	0x3f9b670e	1.2140825
250	0xbf18e775	-0.59728175
251	0xbeb75808	-0.3580935
252	0xbf0586b6	-0.5215868
253	0x3fb49f9f	1.4111212
254	0xbf5e7f51	-0.8691302
255	0x3ba2d0fe	0.0049687615

fc3.bias f4 [4]
0	0xbb9df74a	-0.004820739
1	0xbe1d120b	-0.15338914
2	0x3df48639	0.119396634
3	0x3da6a49c	0.081368655
